py/Train/weights_fixed.npy (npy, 108288 bytes, 1 tensors)

array f8 [1352, 10]
00000000: ddd3 d9f9 4424 493f 491a 1326 9980 703f
00000010: b5db a190 c554 8fbf eae8 2d51 9972 60bf
00000020: 33f9 7192 47b0 843f 7a84 6a2e 460b 85bf
00000030: 38d8 d724 9cb4 733f 7d88 0f21 389b 6ebf
00000040: a5b0 92cf 7449 833f 05dd 054b 8318 653f
00000050: 7d6d 45ae c661 75bf 83bd fe00 cde6 833f
00000060: 4926 dc62 2b97 92bf daaf 77f0 2c86 61bf
00000070: 0a2c e8b3 42de 823f 27b2 a200 b6ba 88bf
00000080: 3c7e 92e4 ba07 513f 8ce8 ee45 d9aa 6fbf
00000090: d97c 45c7 5313 863f 3996 11e8 1891 823f
000000a0: 2f6c d332 dbee 8dbf d033 583c 7ea7 9d3f
000000b0: ca19 5383 a99e a4bf 0acb 82a3 ec3c 8bbf
000000c0: a28d 9457 56d1 9b3f 014e cd2e f9f8 9cbf
000000d0: cdb1 c88d a808 833f 2323 2297 fbd9 78bf
000000e0: 23d9 796e df0f 903f cf08 e323 1c9a 933f
000000f0: f07a 950e 5c6e 5f3f d3d1 830f 1167 50bf
00000100: 2af8 92d8 ce1d 48bf 9b8f 3e50 ce62 30bf
00000110: 4215 e912 aac0 573f c852 bec9 46d8 37bf
00000120: 5d66 08e2 bb45 3ebf 0cc7 b6c9 b06e de3e
00000130: 7104 1d7b fd15 533f b5d5 8617 2842 3d3f
00000140: 4a43 1035 9bc4 603f 7fca f4ae 973c 723f
00000150: 4dff 0081 704f 90bf d8f3 fe06 55d5 63bf
00000160: 378d 2f92 9aee 873f 3955 2871 ab8a 8dbf
00000170: 36f5 4e43 bdaf 563f b1e6 af09 4ef2 5abf
00000180: 9ecd 5c26 5970 813f 90f5 8f7a f2b3 703f
00000190: 2f36 cbaf f5f0 7abf e863 4705 a6df 813f
000001a0: f458 95f8 9d2b 8abf 7759 860d 6278 353f
000001b0: aaa8 e8b2 068c 763f 98b3 152d b436 7abf
000001c0: 1e5f 94b0 5e9e 46bf 3aa7 826b 6a8d 69bf
000001d0: 8c2a 6b5b 6d69 713f 64a4 755b 854f 883f
000001e0: 2d3d 1cba a762 79bf af84 56c3 28b2 843f
000001f0: 3a89 2b1d 8038 88bf 6b8c 4a85 4ed5 61bf
00000200: 9e07 78c2 93ed 743f eae5 f2a1 4a5a 79bf
00000210: ee64 97bd 48ab 523f 7f15 3828 2293 6dbf
00000220: 18b8 8f8b d86d 713f 6566 ffb8 9a40 833f
00000230: fabd e0b3 1fc2 85bf 0cf6 f65a 9404 9d3f
00000240: 6883 95f0 833c a4bf 091f a5a9 c9e2 87bf
00000250: 00d4 e13b b883 9f3f ae6e 1f09 b7ad a0bf
00000260: 1a8b bff6 396b 7b3f d9ec e081 6034 79bf
00000270: 7900 dd1c 380e 913f 44da 00c9 9f1e 923f
00000280: 0c74 5c7e ed2d 2d3f 6199 a78e c6b1 713f
00000290: 918a 2014 1cc5 8cbf c856 1691 647b 44bf
000002a0: 868c fe6d 5348 833f 8844 693f 75e0 88bf
000002b0: 6a6e 7eed 1114 683f 3d19 020b 8e42 6abf
000002c0: e94b bdd5 a5bf 843f 2f0c 37f9 fdfc 6a3f
000002d0: 5760 b2e3 0668 70bf 498c 1064 ef86 833f
000002e0: c95e a34e 719d 90bf 5a26 513c d399 6dbf
000002f0: 2802 e603 f57d 843f 4fad b2d3 29f4 82bf
00000300: db7b f303 9500 36bf 4a50 4d5c 29f9 74bf
00000310: e513 b91e 2777 803f d366 468e c6cd 863f
00000320: 5b50 518e e5b3 89bf 16c5 9799 4fa8 9d3f
00000330: 26ed a5a2 76eb a3bf 2808 7138 74cc 86bf
00000340: 3715 deff 826a 9a3f 9b48 6e03 125c 9dbf
00000350: 5737 ab58 2f17 843f 3f36 6ec0 3206 79bf
00000360: 9753 8192 d94b 923f 2b45 620c d951 943f
00000370: ce16 0783 5fea 603f de34 d652 951b 62bf
00000380: 6606 ab76 bbb9 4bbf 46c1 f9ac 92dd 44bf
00000390: d55d 8639 ad4b 48bf 75c9 fab5 fd21 3bbf
000003a0: 5937 772c 8adc 51bf 3482 4288 d10b e83e
000003b0: 3959 9e44 ac2a 283f 98bd 8584 f75a 59bf
000003c0: 81d3 d87d 3405 603f 2b1d 59be 45e7 6e3f
000003d0: e819 7dfc cd37 8ebf 6225 986f b53c 62bf
000003e0: b2a9 8720 aa7d 873f 3323 229c 3142 88bf
000003f0: cf4d 150e a009 4dbf b3bc dd75 b9e9 56bf
00000400: 2652 1826 e0e8 813f 326a bd99 160f 753f
00000410: dfb5 17dc a5d7 7bbf 5cc7 ed01 fbe2 7f3f
00000420: 92d8 d8e8 c24f 8cbf 7bfb 6dc1 38b5 4f3f
00000430: b080 9178 bf0a 713f 731a 45a3 864a 7cbf
00000440: 159f d52a 08e7 37bf 0e76 ea33 4a21 64bf
00000450: 176c 37c5 8e4a 743f de69 dc05 1427 8b3f
00000460: f5ae aabd b76e 7cbf b775 ce46 3522 843f
00000470: 544d 2a51 0785 82bf a44b fa8e 087d 67bf
00000480: 0606 92a1 c3d1 713f 8375 dc5a c4fc 7bbf
00000490: 1d9f 916a fc41 583f 6fa9 85fd 9d14 67bf
000004a0: 3cbc f5f9 df79 613f 5561 9784 f1cc 843f
000004b0: cee3 019d ea71 83bf 1a51 2abc db0a 9d3f
000004c0: 364e 3fb3 5e2c a4bf 379d d69e d8a8 89bf
000004d0: 9c84 42c2 3ae4 9e3f 7885 955f def9 9fbf
000004e0: 6949 e5b8 1521 7c3f d734 505d f7b5 75bf
000004f0: 93a4 3e98 74b1 913f 189b b045 ed44 923f
00000500: 876a cf7a 310e 4f3f ad96 2571 834b 653f
00000510: 05ec 1e71 f89d 77bf 991b 89ff 6cee 40bf
00000520: 1a36 1a03 bfb7 7b3f e79c 714a d622 88bf
00000530: 0b35 d914 2f48 58bf b1b0 85b6 c687 6ebf
00000540: 85a9 0e80 0cd2 813f 861a fb9c 8462 713f
00000550: b983 bff8 0934 79bf 5af5 3dee a2b3 7d3f
00000560: 6849 4009 e148 80bf 0fa8 db13 7390 7cbf
00000570: 1dc4 a750 55bb 843f 6173 eac7 2c3a 81bf
00000580: 40c3 502c fa4e 53bf 05ef 1aef 35dd 7ebf
00000590: 1b98 4805 ed3b 813f d7c3 2281 7ba7 823f
000005a0: f164 a889 5837 8abf e249 67b4 9580 9d3f
000005b0: 6272 d662 213c 96bf d28c 448e 15db 8cbf
000005c0: 3bd0 76d5 162c 973f 9567 e57c 5b26 9dbf
000005d0: 6e57 259e 2cd3 603f e122 df66 982f 84bf
000005e0: 19db a924 e4ad 903f 117d afd6 2d80 933f
000005f0: 2d8c 35d5 50d2 513f 6b30 5d0c fcbf 68bf
00000600: 1088 16a3 8eaf 2abf c4f6 fedc b02f 50bf
00000610: b13c 4238 38cb 21bf 29ff b82e c7c5 473f
00000620: 9d62 662f a28a 383f 8576 91ce db40 3f3f
00000630: 2e2e b0fb 4d43 323f afc5 a12f 093a 3dbf
00000640: 5a7a 06b8 c372 673f 7d17 33e9 7438 5b3f
00000650: 01a5 53fa cb69 83bf 6c80 dda2 a6fd 83bf
00000660: f194 b811 aa3f 893f 8811 b2fe d5d4 7abf
00000670: f51f ad96 5029 4abf b229 0445 17b0 6abf
00000680: fe25 559f 1bb5 833f 9682 75c9 08e5 703f
00000690: 9f52 1d10 96cb 7bbf 0474 5631 4100 823f
000006a0: d7a5 a7f6 5eae 7cbf 874f ee08 43ba 303f
000006b0: 81e7 3b86 2aa3 613f 40e0 2a02 6fa7 79bf
000006c0: 45de 6005 e624 73bf 6201 fdcd 0f73 67bf
000006d0: 9ddc 4570 8d76 753f 4c74 27c0 ef94 883f
000006e0: b3a1 50a2 fa5a 78bf 954b f344 98a3 7c3f
000006f0: c9bc 9d6d ff41 413f 7030 8774 11e8 82bf
00000700: 2c0d bc35 dce5 703f 94e1 695c 5bdb 6bbf
00000710: c586 0708 5563 4b3f c440 9363 9c3a 77bf
00000720: a7f7 43dd 4324 6d3f 537c 1b15 a0de 813f
00000730: 4972 4153 3911 88bf 89cf 7c11 01b5 993f
00000740: 6f46 8989 aee7 96bf 4f81 6cee 25ec 94bf
00000750: e065 7c0d 5be4 9d3f d220 034b 9ee5 9bbf
00000760: 6f06 0829 6071 613f 8b06 5454 89a7 84bf
00000770: cb23 18dd d713 903f ba10 cc78 6080 923f
00000780: ba18 9651 fc16 563f 00a2 f11c b4d6 693f
00000790: 2a50 23b8 106c 63bf 9b7e b736 126c 53bf
000007a0: 59a5 a70c 0fee 763f 3771 da32 676f 86bf
000007b0: 35ff 6726 e76c 68bf ad27 31ce 9536 72bf
000007c0: 8caa 76af 08f5 7e3f 30fa d574 b3dc 703f
000007d0: 9649 9b86 9ec7 81bf f3e7 d022 1529 7d3f
000007e0: 7032 9bfc f195 79bf 5c11 a3a3 0f49 4abf
000007f0: 7968 6bb0 d44b 7abf febb 11a1 ff38 84bf
0.0007672631069924847 0.004028890835974305 -0.01529840800888658 -0.002007770011400391 0.010101851612713908 -0.01027540997648856 0.0048109149333779785 -0.0037361236831979215
0.009417450508714184 0.002575165206674892 -0.005220199677150259 0.009717561333529861 -0.018154790791447693 -0.002139175197717319 0.009212990870784327 -0.012074872869868148
0.0010394406438435496 -0.0038656467072231745 0.010779051321775078 0.009065813619780193 -0.01461573838098759 0.028959248002184357 -0.04027299621661802 -0.013299797763783445
0.027165745826221895 -0.028293508035245555 0.009293858363059205 -0.006067259573804748 0.015685549848478374 0.019142570200309458 0.0019184016221839816 -0.001001135502574181
-0.0007359752645681495 -0.0002500299162824183 0.0014497433545711124 -0.0003638432333386396 -0.0004619201372705101 7.2556460070526145e-06 0.0011649108314062651 0.0004464481239908295
0.002046874179093915 0.00445231677376745 -0.015928037523053096 -0.0024210606279368822 0.011685569368586541 -0.01442464770392836 0.0013846729536760144 -0.001644684037044913
0.008515068515044185 0.004077861006405739 -0.006577453340197033 0.008727356945131562 -0.01277850546709345 0.0003276099573893613 0.0055046331095047005 -0.0063998258714094355
-0.0006902658798564087 -0.003119190074433312 0.0042509338151811675 0.011870424131034514 -0.006197600539749088 0.010105436764947432 -0.011826516046714464 -0.0021769078833400644
0.005109383760556611 -0.006189624341624159 0.0011394701344811758 -0.00361019774732324 0.004255147819078452 0.009400566836052346 -0.0106241680879 0.02833778195576113
-0.039524195783775806 -0.011663032045035064 0.030775908141055908 -0.03257534014093487 0.006694055959061607 -0.006153466207304358 0.016655804406810113 0.017694946902532274
0.00022262119380736555 0.004319930662381872 -0.0140478318826969 -0.0006250611351556684 0.009415294451008426 -0.01214686965718871 0.002939257636126948 -0.0032055639531477762
0.01013116415530209 0.0032944641513679355 -0.004005457794072318 0.009534712067823874 -0.016225595879261676 -0.003613388604695439 0.01000586908480823 -0.009254767201432172
-0.0003357280547344168 -0.005120431484858365 0.008039765954103781 0.01113467332543242 -0.012550156980218377 0.028962367772639906 -0.03890581832362221 -0.011132152531107734
0.02579693495456078 -0.028671533069037563 0.009809846776444848 -0.006109426735645906 0.01786746937462488 0.019843474751330675 0.0020648827996606394 -0.0022104183651153594
-0.0008461156224585764 -0.0006367651166794628 -0.0007414432357561405 -0.00041401332962744754 -0.0010901784279328723 1.1466105441394326e-05 0.00018437722092974078 -0.0015475670971588414
0.0019556069589960483 0.003772388666024936 -0.014754876392214691 -0.0022262138052197436 0.011470154874548697 -0.01184500463229341 -0.0008861571806541515 -0.0013984976899015622
0.008744956171576734 0.005141342433342676 -0.006797454728695722 0.007784824846440799 -0.01382400773136919 0.0009676482321622071 0.004160640653111766 -0.006907010964204307
-0.00036472272298347766 -0.0024572800896993712 0.004953916260514133 0.013258129528868897 -0.006941526162943514 0.009830871795027158 -0.009042794384447696 -0.002867237773736391
0.004350437339895935 -0.006832854281836889 0.0014805760386255647 -0.0028174482105686664 0.0021333097972085196 0.010156523569933166 -0.009494622150883727 0.02836173377961968
-0.039401015644810064 -0.012529079768525448 0.030167501551322404 -0.031226610740650668 0.006867489674123519 -0.005300489680860574 0.01727850131252191 0.017841060045749563
0.0009477368927222764 0.0025994841791313257 -0.00576588676079393 -0.0005167038171486226 0.0067670308504950375 -0.011785196444363112 -0.0014820537357025955 -0.0037268525231209594
0.008701417596814984 0.004244344730699573 -0.006153143836827129 0.0072513927915428215 -0.007951505751439839 -0.006973695298919238 0.010122934841065906 -0.008411741114565609
-0.0011784976097823502 -0.007535181693750341 0.008415080760709561 0.009108509901439561 -0.012800876332266205 0.028810824523881957 -0.021713754327367225 -0.01408974495331564
0.02262912443048058 -0.028466634271672914 0.0020538207474300385 -0.00985640586795128 0.016288342225801864 0.019043651798594633 0.00108774083931774 -0.003021232873754489
-0.00020359626936988827 -0.0009879328899694987 -0.0001357561233174868 0.0007254812785006715 0.00037447414015327215 0.00047688833598678204 0.00027866987119360114 -0.00044596409100624684
0.0028623411782995713 0.0016614095409734624 -0.009479135109773386 -0.009761144490483008 0.012328461328318304 -0.006550632398220187 -0.0007983821391031031 -0.0032577948078415736
0.009622779655404475 0.004124674152394056 -0.006785951789272686 0.008789548223655082 -0.007002230597643564 0.0002552426967039546 0.0021529989770642803 -0.006263192774604021
-0.004673861045425169 -0.0028624828991327548 0.005240013594053708 0.012002823878839795 -0.005946139373044823 0.006991953661059554 0.0005266663749647012 -0.009231697434096214
0.0041254617642636875 -0.0034004959482524886 0.0008358159248553423 -0.005671130079648094 0.003557331607338693 0.008725405353685078 -0.011751602032910162 0.02510453862414822
-0.0223681708760694 -0.020432083775746176 0.02919142026721555 -0.027243111923582593 0.0021292570238536294 -0.010085175405495824 0.015700695867085373 0.018067843792793005
0.0013482536363383217 0.003154136451076761 -0.002370865492688186 -0.0011854341381577818 0.005598124300811713 -0.010954672088069202 -0.002981616463557569 -0.004446587731829083
0.007557901313172476 0.004116726876758167 -0.008681524737231421 0.007119257509708976 -0.006246514569011027 -0.0008021665919604559 -0.006419974152516266 -0.00987434110922258
