py/Train/weights_fixed.npy (npy, 108288 bytes, 1 tensors)

array f8 [1352, 10]
00000000: 3af5 178e 39f9 69bf 7b37 b769 c682 963f
00000010: ab5f db8e 6c92 9ebf 31bd 0b2f dd0f 96bf
00000020: eb8c 9301 0fd6 993f bb12 cfc0 5aa4 9dbf
00000030: d7ad 0ded 5b91 853f c3ac 6c3a f832 80bf
00000040: 14fa b7c5 cd9a 7b3f 7410 1b00 7bfd 993f
00000050: a886 f2c6 688c 4dbf e04c a857 3265 803f
00000060: d188 518d 6ff7 90bf e531 e9ec 0f4d 78bf
00000070: d67f 0d73 67dd 893f 5237 76cf f332 90bf
00000080: 581d fbc7 768d 6a3f 29ba bafb e139 66bf
00000090: 155b a460 8dad 7a3f 2785 24c8 5737 893f
000000a0: 9a21 2086 633c 51bf 43d6 0d1c 09cc 853f
000000b0: 418f 6b65 abfd 90bf 72e5 4441 0ac5 81bf
000000c0: d9af b86f 1e78 883f 1664 fb50 111c 8fbf
000000d0: 6acd 2e0f 68c6 7a3f c93e 3c6d ed32 70bf
000000e0: f7e5 974f e7c7 723f 2651 ca25 73a7 8c3f
000000f0: bcc4 1876 9a78 65bf 0bdb f9fc b26f 8d3f
00000100: 8ece 66d7 6c8a 98bf 28f3 030f 72f1 89bf
00000110: 8741 c5f2 1295 953f 8802 c9ee ff60 98bf
00000120: e5be 0c69 4940 833f 6129 8025 ed19 79bf
00000130: b6b4 6256 6b19 823f 5aeb e589 1f07 903f
00000140: 903c f454 717a 483f 8276 5435 4019 923f
00000150: e832 73c2 665b 99bf 5da0 eccf c878 91bf
00000160: 9832 db77 31e5 953f b146 4134 8ed6 96bf
00000170: 8349 ea98 3c74 743f 5008 4848 3e54 80bf
00000180: bcc2 e0ed 5bc6 773f 98f8 979d ab98 953f
00000190: 33fb ed49 910d 423f 6982 1dce 4dfb 823f
000001a0: ee25 52dd 3e42 96bf e086 6271 6786 81bf
000001b0: 665d b435 a07e 903f c6ce 65d6 9176 98bf
000001c0: 0f3d 29ea bb09 7b3f aae3 1c57 a7e4 76bf
000001d0: 8ba8 7884 7247 833f 95c3 847d 2f14 903f
000001e0: ea9b 9e48 522d 5ebf d0dd ace2 a16f 643f
000001f0: 236c dae1 f787 6fbf 9f9b 3f88 66f0 4c3f
00000200: a44e cf2f d947 82bf 9b88 ddcf 7293 703f
00000210: d430 dac9 2cdb 6fbf 63c8 8805 8daa 73bf
00000220: 9ad4 388a 3516 52bf 0a0c c23d 05d5 873f
00000230: 8313 086f 94b7 333f 3d0a 6afa 5106 763f
00000240: 745e 2350 654a 86bf df10 f853 1f3d 7bbf
00000250: 656a 1f2c 38a6 833f b68b 3ca9 b8bb 86bf
00000260: c9aa 4b8a 19f6 653f 88df f1fa 97d4 54bf
00000270: d434 4052 4657 773f 48fe 2e3f 8cc5 7d3f
00000280: dd29 c213 b8f8 5ebf 071d 7cec c71e 973f
00000290: e25b a0ef 953d 9dbf 4341 b4fc 247f 95bf
000002a0: 613c a5c4 c6df 993f 1896 3ecc c39f 9dbf
000002b0: 05ea e61c 3dcf 823f fcbd 94a9 9eb2 7ebf
000002c0: 562e 1609 bc01 7a3f 521d 4694 ef79 993f
000002d0: ff3d 67b0 2eb1 293f 13bc bbb6 7461 803f
000002e0: 6b32 c332 37e4 8fbf d1f9 c126 39a8 7abf
000002f0: cc00 4c62 330c 863f 99a6 a195 462f 8bbf
00000300: 5f35 1e73 bba7 573f 7baf 6c4e 4fb4 71bf
00000310: 19f1 dc4d 730d 7d3f caea d26a 5590 8b3f
00000320: 0b9f b312 ccf0 53bf b154 fa1a d67a 833f
00000330: 0fe6 0720 bf85 90bf 232f 8153 5074 81bf
00000340: 7f1b de3d 2e66 8a3f 0802 36a0 5ca2 90bf
00000350: c868 d6ce 4062 7a3f 659f 4b04 a95d 73bf
00000360: b5a4 9f44 0418 763f c019 067e 4f51 8e3f
00000370: 0ba3 0e36 b715 5cbf f26b 004b edfd 8c3f
00000380: b85c e82f 41f8 98bf f6ea fe89 662f 8cbf
00000390: 5911 cd33 64c6 953f 4eef fee5 1021 98bf
000003a0: 0fd5 25c4 5da5 813f 5a2c 9b16 72cc 73bf
000003b0: f448 e26b eeae 823f fc78 375a 3bdb 8c3f
000003c0: f20d 1963 78fe 5ebf b818 36ca e139 923f
000003d0: b047 08c4 0852 98bf dbb6 df46 412d 8fbf
000003e0: 70be 597b 416c 943f fdd8 5d33 96dc 96bf
000003f0: 5e86 059c a032 753f 9e4d 1f0c 5f13 7cbf
00000400: 2214 7c75 8cbc 783f 708b cf32 d0ee 973f
00000410: 8619 4cce 52fb 503f 825b ea0d 9711 7d3f
00000420: aa29 7e88 781c 94bf a3a3 a44d 63dd 80bf
00000430: e4c5 6eeb 159a 8d3f e012 7c65 c8c1 98bf
00000440: 9db4 c883 341b 7d3f b7a7 d4a6 fe99 77bf
00000450: 8366 17ba 6585 863f a006 67cc 1533 923f
00000460: f3a4 5c83 ed97 66bf 06dc ba79 0c09 603f
00000470: 6f40 3c90 f63f 55bf cf2b 4ff9 ff16 4fbf
00000480: 98be cda4 bb2f 82bf 8d5c b02d bb6c 7e3f
00000490: 4b8f a4bf e6ac 77bf 6588 b60d aa0c 79bf
000004a0: ae1f bef6 663a 53bf 19ef 9df7 e80d 8a3f
000004b0: 799a 579d b5b5 53bf 533d b8d9 314c 783f
000004c0: c227 a47f e00f 85bf 73cc 9edc bec9 75bf
000004d0: bbc3 c951 2f0a 823f d288 5cdd bcc5 87bf
000004e0: 05db 7a9e 14dd 703f 009b 67bd 56e8 54bf
000004f0: c258 6ba1 683c 743f 90a9 9093 7816 7c3f
00000500: 955b 468b 1e1d 66bf 9f7a 7de3 8973 943f
00000510: 6c40 334e ea5e 90bf af10 f066 0ff7 97bf
00000520: 70ec 387f 9d18 993f 83b7 cbb1 ddf1 9abf
00000530: b435 e922 3ca6 6f3f 6e17 ecf1 fe98 85bf
00000540: de22 b740 345a 7e3f 4f18 7cff 3b18 983f
00000550: 8c34 588c 4f7d 5dbf 11f8 3982 6787 693f
00000560: 7f92 071b 363b 81bf cc7d 3bdf 2965 87bf
00000570: 45d9 1abd f07d 873f 6bb6 cd5d 65b5 81bf
00000580: 59c3 ac39 be66 623f e19e 0323 ebf9 78bf
00000590: 796b f90e cf05 753f b982 c4b6 73e6 873f
000005a0: d11e 7037 1c59 54bf 18ad de45 e37c 803f
000005b0: d76c 0991 738c 83bf 1cbe c18b 55f3 81bf
000005c0: 33c7 5fe1 d1d3 8a3f 5d84 5e32 a767 90bf
000005d0: 4eb4 85b3 2864 613f 8183 3924 45c0 76bf
000005e0: 54f5 3baf 9c13 6b3f 6fad dc50 182e 8c3f
000005f0: 2a5c ada8 4340 62bf 4e32 b9cf f56c 863f
00000600: 257d dde0 937f 85bf 6ad7 3807 3deb 90bf
00000610: 4e1c 0050 86bc 953f 617a 25ae 381d 95bf
00000620: 7670 b545 2cfc 5e3f 7245 7868 62c1 7bbf
00000630: a18e 49ae a2c4 823f d15b ebef 4a60 8d3f
00000640: 5fcb 4590 d130 4ebf 3b24 e152 2a03 913f
00000650: fe7e 2a9f 815a 90bf 4bc6 4f5d 812a 91bf
00000660: 535a 9609 17c5 923f 47ce 7597 9eac 93bf
00000670: e128 ff62 3d6d 323f b792 49a6 cf95 83bf
00000680: 1e62 e750 4ee2 743f 0cc3 8717 c7f0 943f
00000690: 080b 9e1c 2791 543f 9980 15b6 5e42 833f
000006a0: 5b61 8d35 b9dc 86bf 9099 b881 be0d 7fbf
000006b0: dde8 77a7 2f82 8b3f e061 1962 933e 99bf
000006c0: c248 d830 2683 0d3f 85a7 0ad3 53f5 71bf
000006d0: 1570 92cb 64dd 853f e9e5 806c bc0a 923f
000006e0: 0635 219c 1ba8 5fbf 3b9a ee75 7841 fb3e
000006f0: 8db1 55b6 491e 843f f07e c905 cd66 70bf
00000700: 0f4c 4a47 2e6a 82bf c39a c339 7fd4 823f
00000710: c648 fbb6 35b3 80bf 537b c7bf 1917 7fbf
00000720: e6b7 9201 2503 59bf f41e f761 3d0e 8a3f
00000730: 8947 cf42 84c6 433f 3e73 9be8 9151 743f
00000740: 99b7 85bb 07f6 6bbf b9fd 1048 6d83 7abf
00000750: 1a4b b38b 9856 7e3f 94f9 6a7b 9eea 89bf
00000760: af6c 211e c3c0 4dbf 428d cc51 d1e9 52bf
00000770: b25d 2753 3937 733f 753b 87a2 a8b3 813f
00000780: 1a6e 626c b0e1 84bf 1f87 872b 2298 943f
00000790: 39f4 5b82 87b3 90bf a066 3f43 5f3a 93bf
000007a0: e3a2 9716 da69 863f 3047 7a80 7c08 9dbf
000007b0: 9f98 72de bbae 9d3f 4e92 1ca2 db86 8dbf
000007c0: e694 b743 b819 723f d815 1736 11e6 973f
000007d0: 7b72 7bea dd02 87bf 6afc 6382 3157 4a3f
000007e0: 14b3 847a 9e09 76bf e790 4997 ee53 7b3f
000007f0: 81e1 97e2 02df 30bf 6977 35c5 29c3 89bf
-0.0031705974695329904 0.021983242227910687 -0.02985543844155784 -0.021544891354037424 0.02523063132401841 -0.02894727517902383 0.01053115670375508 -0.007909716876005729
0.006739429281422921 0.02538101375718367 -0.0009017478568191422 0.008005517292110687 -0.016568892479320866 -0.0059328672492253475 0.012629326056128248 -0.015819367921316392
0.003241283411486922 -0.002713147519748622 0.006513168578996771 0.012312589450234569 -0.0010519954598767534 0.010643073242799455 -0.016592672410197244 -0.00867660533605161
0.011947858604877059 -0.015190253528475178 0.006536871415778614 -0.003954818199204354 0.00458517413925951 0.013991260138290839 -0.002620984728104318 0.014373205514159012
-0.023965550086087854 -0.012667552073702362 0.02107648474458437 -0.023807524632732086 0.00939996101223479 -0.006128240922416901 0.008837545942095165 0.015652172843583535
0.0007470181825811762 0.017674449210167704 -0.02476273118809305 -0.017062318506902197 0.021382115307278043 -0.02230283922137372 0.00499366446332983 -0.007973181324818196
0.005804404352645672 0.021090203756096132 0.0005509337823780047 0.009268386700285807 -0.02173708177409666 -0.008557136676532406 0.01610803916727601 -0.023889807425304686
0.00660107998062577 -0.00558915488527926 0.009413618724540626 0.015702001606033262 -0.001841860156199133 0.002494636709709154 -0.0038490144205076834 0.000883150162278013
-0.00892610242036735 0.004046867832444924 -0.0038886904502018847 -0.0048013218552559215 -0.001103927884185374 0.011636773059086298 0.00030085920209926164 0.005377121188419096
-0.010884086139795836 -0.0066500877142099115 0.009594382139700383 -0.011100237526596373 0.0026808260757794394 -0.0012713894064102244 0.005698466007754994 0.007268474425415734
-0.0018903539303517438 0.02257835751427442 -0.028555243254313363 -0.02099283020385313 0.02526770186642258 -0.02892976698026048 0.00918433899356775 -0.007494563841916154
0.006349310411120598 0.02487921087734197 0.0001960153096676048 0.00799838240297216 -0.015572005497596927 -0.006508086440702291 0.010765458524020131 -0.013273765031232275
0.0014437990725782652 -0.004322347441114145 0.0070929054325541635 0.01345888836146027 -0.0012170784855757867 0.009511635492609779 -0.016135202722557248 -0.008522632168158467
0.01289020658783868 -0.016244361189366813 0.006441357761469209 -0.004727993222992531 0.005393997833359855 0.014803525002901163 -0.0017141617938511457 0.014156202174538255
-0.024384516285945707 -0.013762284361168647 0.021264615689930853 -0.023563636815864535 0.008616192387061376 -0.004833646447603613 0.009122717540126925 0.014090026560492401
-0.0018917251258166981 0.01779892727565688 -0.023750435795655 -0.015223035788916863 0.019944213060112792 -0.02232584656254576 0.005175235157680895 -0.006854411390992436
0.006039189021753296 0.023371937848320312 0.0010364826823106867 0.007096853309710551 -0.019639857607708734 -0.008234763915042914 0.014454051253639251 -0.024176722711689247
0.007106022964348172 -0.0057620951968519385 0.010996622792777138 0.017772999382720145 -0.0027579916885725974 0.0019574397718673557 -0.0012969882818119301 -0.0009487867233642868
-0.00888010594073245 0.007427912870318865 -0.005780125962960468 -0.006115593215698299 -0.001173592138885109 0.012721843773526186 -0.0012029908733609802 0.00593203995550991
-0.010284189124394664 -0.005319352678202371 0.008808488543964424 -0.011607623582282765 0.004117088835917886 -0.0012760970181432962 0.004940422738135721 0.006857367517151394
-0.0026994320453001632 0.01997199488630008 -0.015987072966538937 -0.023403397233793196 0.024507962121998295 -0.026313270546715294 0.003863446668481452 -0.010545722730522757
0.007410244095304745 0.023529946774054896 -0.001799895938691595 0.003116323628829861 -0.008413717937352459 -0.011423422932636117 0.011470680972121125 -0.008646766591222396
0.0022462573373548786 -0.006097715857528136 0.005132492849578501 0.011670021071553337 -0.001241948657254289 0.0080507045457439 -0.009545233596489329 -0.008764904334582595
0.01309932679211876 -0.01602040524415248 0.0021229548403228 -0.005554456790918817 0.0033052501911458396 0.013759794204438262 -0.0022279092276380657 0.010950012590137306
-0.010497241306153324 -0.016522363248632578 0.02122697699817549 -0.0206192833223845 0.001891177401225822 -0.0067762226167514695 0.00916411489851693 0.014343820044286833
-0.0009213469752878781 0.016613637264786468 -0.015970254268380828 -0.01676370746640136 0.018329963646090807 -0.019213178629298857 0.00028116940211177053 -0.009563085806072775
0.005098634645456927 0.02044974404447246 0.0012553102446594706 0.009403934413683411 -0.011163184115205274 -0.00758146683396034 0.013431904123525512 -0.024652769911286287
5.629024790833457e-05 -0.004384353102674048 0.01067618128063689 0.017619079706696104 -0.0019321698787451726 2.5993103345856575e-05 0.009823394658007323 -0.004004288548997911
-0.008991586256604149 0.009194368315048057 -0.008154315611509932 -0.007590389807289838 -0.0015266286266455375 0.012722472717441737 0.0006034990125220889 0.004960603671602835
-0.003413214781338558 -0.00647299469079548 0.007406803018244168 -0.012654531613745225 -0.0009079888079769528 -0.0011543792854318978 0.004691337513996018 0.008643453083008382
-0.010196092898971765 0.020111593157600468 -0.01630985005521188 -0.018777359466048638 0.01094408399053876 -0.02835268530049645 0.028986869289518876 -0.014417377362016339
0.004419059546738801 0.02333857433929673 -0.011235936849908193 0.0008038512940230617 -0.005380267197591566 0.0066718406638736965 -0.0002574331325315913 -0.012579275446735943
