py/Train/weights.npy (npy, 108288 bytes, 1 tensors)

array f8 [1352, 10]
0	0x3f7014134e5c9d9e	0.003925395407157776
1	0x3f61ad6391ea8079	0.002157873604417712
2	0xbf8003edf4ceb4a7	-0.007819994958334254
3	0xbf43ca601fb13256	-0.0006039590219955686
4	0x3f664081deceacdc	0.0027163063554859045
5	0xbf779a133949536e	-0.005762171833869496
6	0x3f5541391b9b0ebe	0.0012972886747072833
7	0xbf64cc520a711025	-0.002538833843148696
8	0x3f70ed8e05e306ce	0.004132799889875206
9	0x3f703ea4c2b4a8b4	0.003965991588566965
10	0x3f4ca67700eaac29	0.0008743363449260677
11	0x3f75eb6d6d3d067c	0.005351474235625649
12	0xbf904fb2c163e797	-0.015929024747471123
13	0xbf3e093c4feaa634	-0.0004583141562003207
14	0x3f7c2b8b12e6392d	0.006877463585978111
15	0xbf829c91be1eb27f	-0.009087694754122964
16	0x3f67f9ad469667cd	0.0029266723910952087
17	0xbf63ae5c39d86f44	-0.002402477387262099
18	0x3f77754a31f7ad2d	0.005727090668624241
19	0x3f8081b6408498ed	0.008059905857021177
20	0xbf84408433e5a08a	-0.009888680299539727
21	0x3f919b186abaacc3	0.01719320441649753
22	0xbf9874f9d3571eb4	-0.023883727573575
23	0xbf77602dc0c26fab	-0.005706957552458573
24	0x3f90a76e7af749b5	0.016263700728652093
25	0xbf8fb3acb32f7746	-0.01547942087011801
26	0x3f74057a2a8938fc	0.004888035975979085
27	0xbf7a7c4893c1a0d7	-0.006466182236273896
28	0x3f7dab4b0ed1498b	0.007243436045501271
29	0x3f86731f216b8783	0.010961764533423018
30	0xbf7010f7f2f8012d	-0.003922432471427134
31	0x3f87dfff6574671f	0.011657710345889747
32	0xbf87b803a922dcb2	-0.011581448172689999
33	0xbf47ed67c032a896	-0.0007302052112170439
34	0x3f78c5488b02805e	0.006047519084091927
35	0xbf713e0b87b15278	-0.004209561385398623
36	0xbf53a212f704d1c8	-0.0011983094410200502
37	0xbf753b6f2a101731	-0.005183634028986182
38	0x3f705c7ae3d04e97	0.003994445837651426
39	0x3f74d1fa66eadedb	0.005083063252349719
40	0xbf4ff519b5e44bfc	-0.0009752631702063526
41	0x3f927382ba2cefa2	0.018018763173344284
42	0xbfa005b04a12b958	-0.03129340080464499
43	0xbf764e58ea061c58	-0.00544581157772147
44	0x3f946ac4ad3c9123	0.01993853862144691
45	0xbf9d295bc0154fde	-0.028478082274275944
46	0x3f790a6dc03fe99b	0.006113461222407325
47	0xbf83bc79dcccd95e	-0.009636833239352324
48	0x3f8c4eeebf41fd24	0.013822426997875122
49	0x3f8fdd821a09cdfd	0.015559212131143413
50	0xbf812820d2a8faa8	-0.0083773197449067
51	0x3f87db1dddd44278	0.011648400623500907
52	0xbf8f85965c9faea3	-0.015391516400959765
53	0xbf50dcbb9c6348c0	-0.0010291893136594038
54	0x3f824ee4878c0144	0.008939538370669305
55	0xbf7bea5e19e869f1	-0.0068153072193361955
56	0x3f5cb143b3efd456	0.0017512475167198636
57	0xbf704ab68ec4dae3	-0.003977501979810258
58	0x3f77eaf5b4d28ad0	0.005839309492474867
59	0x3f7cb8513077dd9d	0.007011716028038431
60	0xbf84bd1e08d02aa1	-0.010126337665515907
61	0x3f9f166fff0a756b	0.030359029714067825
62	0xbfa575c8a3e44194	-0.04191424370413013
63	0xbf81613cb899d51c	-0.008486246474812158
64	0x3f9d5622065c9f36	0.028648883474630092
65	0xbf9d6ea49f46bfc9	-0.028742382260759123
66	0x3f72efff72d878c1	0.004623411031870529
67	0xbf7f30741379ece2	-0.007614568159279163
68	0x3f8ac0b0b8d0408e	0.013062840118465393
69	0x3f937076424ec151	0.01898369579038334
70	0xbf60aa5f87bbb603	-0.002034365255773053
71	0x3f7447cb532aad0a	0.0049512808206302415
72	0xbf8da6312e860861	-0.014477142555510083
73	0x3f6e0826f39816f9	0.0036659966251616463
74	0x3f6db1a4c573b64b	0.003624746149958812
75	0xbf798f9ad9070ca6	-0.006240467905118374
76	0x3f5cad73f7bc4a58	0.001750338792537184
77	0xbf6e67c1cbd23408	-0.0037115845758024547
78	0x3f72baf78156230d	0.004572836701648664
79	0x3f806d8582921186	0.008021395728299973
80	0x3f64aa224a971956	0.0025225324395449595
81	0x3f6e251a050523a5	0.0036798008151532496
82	0xbf811762580a7828	-0.008345382987780495
83	0xbf615d510481f1b9	-0.002119692075267046
84	0x3f7276a7d2d1933b	0.004507690010630945
85	0xbf7a7f05a4b0481c	-0.006468793911169637
86	0x3f64ed7d449921fa	0.002554649986255206
87	0xbf62576333cce5cc	-0.0022389352365308254
88	0x3f72d1603df5fd0e	0.004594207711647215
89	0x3f723925a3c3be98	0.0044490309048651686
90	0x3f5554a083b18cdd	0.0013019149326048342
91	0x3f70af720d893629	0.004073567885439591
92	0xbf8dc223b5f43c91	-0.014530447950646315
93	0xbf563baa584ace93	-0.0013569987797098823
94	0x3f750ca70469e53c	0.005139019404503838
95	0xbf7d09be8960e3fa	-0.0070893709981243395
96	0x3f634ce8b1525778	0.002356008985382848
97	0xbf6d1f3d01ca2d48	-0.00355493464878057
98	0x3f80ce47ccd80ca0	0.008205948771325133
99	0x3f7d269a2bdd736a	0.007116892082049778
100	0xbf824de711af33e4	-0.00893764994352781
101	0x3f9266ddc9d209ed	0.01797052902521472
102	0xbf97bb874a72504e	-0.023176301878791876
103	0xbf65e8d2c620d881	-0.0026744953802576026
104	0x3f90c144868b9822	0.01636225768279343
105	0xbf8d4b1a3155c5f7	-0.014303402548395445
106	0x3f66da40165b737b	0.002789616747448096
107	0xbf76b32991e1531f	-0.00554195631237489
108	0x3f8201c0f248fc7f	0.008792407411531976
109	0x3f87d728f7f41cb1	0.011640853945677017
110	0xbf7661b63e0529b9	-0.005464279064037952
111	0x3f843fdf180ff06b	0.009887450143644302
112	0xbf86718bebfaa74c	-0.010958760394106946
113	0xbf655b1a352790ef	-0.0026069175594206555
114	0x3f7649532aef0352	0.0054410217989591825
115	0xbf74a8623d94022f	-0.005043395759685639
116	0x3f336837ccee5ec4	0.00029612886731332174
117	0xbf74a0e6c7959549	-0.005036260111727594
118	0x3f75c6cea99dce0b	0.005316550517693762
119	0x3f77413466fbabd5	0.005677418419263132
120	0xbf3b5a005af132e2	-0.00041735180542871845
121	0x3f929e2d1c932a10	0.018181519383498268
122	0xbf9e8d81da6b2f9c	-0.02983668227788848
123	0xbf7302de31f21255	-0.004641406964883095
124	0x3f94f0d45144639b	0.020449941120293507
125	0xbf9ddcb20dffecb7	-0.02916219912002013
126	0x3f77f5160398b65a	0.005848966591242533
127	0xbf81cc93b1a7288f	-0.008690980776823202
128	0x3f8bae80b81b705a	0.013516431444650024
129	0x3f8f90f15373da72	0.015413174971837782
130	0xbf80ba9ef2b1e660	-0.008168451100789287
131	0x3f8b90ce37206d7e	0.013459788377125245
132	0xbf904da05c68c04c	-0.0159211212541666
133	0x3f38487060083b93	0.0003705286362966572
134	0x3f82c279449a9c66	0.009159991651655552
135	0xbf7d14b9d4809113	-0.007099843882347539
136	0x3f4ff11eb3154155	0.000974788656245488
137	0xbf6ebab52f64ab50	-0.0037511385700289904
138	0x3f7983d76a423410	0.006229249444129628
139	0x3f7d3622655c861d	0.007131704672958897
140	0xbf84b577e109298a	-0.010111748271033578
141	0x3f9e99f3f049de86	0.029884158650445268
142	0xbfa5540294be8235	-0.0416565710613707
143	0xbf7f6b04d88e4a36	-0.0076704205793185955
144	0x3f9d08e4d3d8aee4	0.028354239873961698
145	0xbf9b2fc673abf07d	-0.026549435434376257
146	0x3f6b94beaf318ad0	0.003366825514193074
147	0xbf843e9e36234357	-0.009885059382584478
148	0x3f8ddbd8d36fe09d	0.014579481079622087
149	0x3f94273bbc0078a9	0.01968091330501723
150	0xbf569a61e149db5b	-0.001379581056566179
151	0x3f702d5109d9a31a	0.0039494672360909314
152	0xbf8b1f4283a3141c	-0.01324321712707826
153	0x3f5f5d7c9bf69e91	0.0019143788229970852
154	0x3f6a8bec8962fe22	0.003240549073865188
155	0xbf77163fc69e8b30	-0.005636452793541122
156	0x3f4b1705dfe152ac	0.0008267191585767573
157	0xbf73eed7dcfd7ac8	-0.004866450515548855
158	0x3f76b1b4e1991fac	0.005540567939142631
159	0x3f82e557101bf213	0.00922649400626433
160	0x3f4ec2d8f47e0b94	0.0009387549734899297
161	0x3f6512332c4ad03d	0.0025721549485187276
162	0xbf72e78b2b8ff83e	-0.0046153484663574145
163	0xbf638b6bd6123630	-0.0023858171630937383
164	0x3f71fb0b5541f91d	0.004389805097274183
165	0xbf79f6e83d89cde6	-0.006338984669685277
166	0x3f49286ae3d7bdfb	0.0007677575992470204
167	0xbf6e2119ea63035e	-0.0036778932727376387
168	0x3f6eaf4ca55446f4	0.0037456986416451957
169	0x3f6dfb31be08521a	0.003659817841489732
170	0xbf4c03c242fd5e51	-0.0008549402755119816
171	0x3f64217753ad701f	0.0024573641398273473
172	0xbf83453961cae949	-0.009409378334897982
173	0xbf777f9b2bec67ab	-0.005736929072350276
174	0x3f7328455e24fec9	0.004677077262669812
175	0xbf717b268429fae1	-0.004267836050188407
176	0x3f702b099deff346	0.00394729382150844
177	0xbf775428ca2e543c	-0.005695494971310441
178	0x3f7b1cbc1bdb9ccf	0.006619200515820724
179	0x3f805643ff318f43	0.007977038598432911
180	0xbf82472df6904de0	-0.00892482670500433
181	0x3f910d15b1488414	0.01665147680808239
182	0xbf8765daae871dad	-0.011424740267911593
183	0xbf831bda9511dd71	-0.009330470728157821
184	0x3f919995c423cba8	0.01718744287149901
185	0xbf89a00e458c14ef	-0.012512313363468112
186	0xbf6161951988bcd1	-0.002121726236758194
187	0xbf8242eca70c908a	-0.008916710708554616
188	0x3f7f826f82287aae	0.007692752437405899
189	0x3f8558fd1f6b1683	0.010423638840971755
190	0xbf77ec952bcfa838	-0.00584085721946264
191	0x3f8358082de7c6e6	0.009445251370354634
192	0xbf7bb80b941ccdac	-0.006767316082732771
193	0xbf644de3bd91239d	-0.002478546910911607
194	0x3f75991da809ee45	0.005272975774115067
195	0xbf715ee219a1292b	-0.004240878299308452
196	0xbf60d035551391c2	-0.0020524064681117513
197	0xbf73a02e004eb82b	-0.004791431133453409
198	0x3f74f1ea0c4e0ff5	0.005113519907244059
199	0x3f7630a890e5589c	0.005417498074470253
200	0xbf6914b9408da47c	-0.00306163961470368
201	0x3f937efbc0cc469c	0.019039090769246245
202	0xbf909a2c0925c108	-0.016213119562452
203	0xbf7669c0eac9af51	-0.00547194822557258
204	0x3f942701ee4018d2	0.019680051962517826
205	0xbf9f2b28eac26454	-0.030438079193661885
206	0xbf6f59cef837971d	-0.003827003705498279
207	0xbf7f7b9a68a2ff41	-0.007686236533288427
208	0x3f9019327fd5c205	0.01572111993067617
209	0x3f8eef9721babe93	0.015105419842569112
210	0xbf8088cec584a127	-0.008073439982198295
211	0x3f863bc92b897a92	0.010856219903130158
212	0xbf8396cd50a3842d	-0.009564975760840333
213	0xbf6718221f731bd5	-0.0028191248380582215
214	0x3f7ace957033e2e7	0.006544669860198061
215	0xbf6de8db0818ea0a	-0.003651073261406572
216	0xbf473f37ceedcdf3	-0.0007094404698890208
217	0xbf72751dd5b724ac	-0.004506222288406619
218	0x3f762750d8b936dc	0.005408588225305624
219	0x3f764ec191587b0f	0.005446201442764544
220	0xbf8756882362cad3	-0.011395515041248505
221	0x3f9b64d58298efbc	0.026751838775666434
222	0xbf9d31cdca27e678	-0.02851029917108014
223	0xbf87fba26eabb5d2	-0.011710423471835183
224	0x3f9df12381be989b	0.029240183633782207
225	0xbf996a9a1c80e36d	-0.024820716848100433
226	0xbf6cf8b3ef2d59b3	-0.0035365595189588927
227	0xbf8965e5be599405	-0.012401385184782407
228	0x3f8b760523e3eb20	0.013408699186120254
229	0x3f94b12fdea8c8b1	0.020207164731069486
230	0xbf60e6cb399d6682	-0.0020631760825551857
231	0x3f702a9d6268620b	0.003946890623887099
232	0xbf794c54bb07b132	-0.006176310519077343
233	0xbf47e5356e4b0339	-0.0007292281048521871
234	0x3f777503ec6eebb6	0.005726828886447535
235	0xbf6bc661049bcdb3	-0.0033904929049357268
236	0xbf56451e813beca3	-0.0013592527292860888
237	0xbf703aab7f37f8c6	-0.00396220198626746
238	0x3f74910dd47dd08e	0.0050211467968105505
239	0x3f804a25fa06cc55	0.007953926747040688
240	0x3f608c70df8e720f	0.002020092444992245
241	0x3f62b80451adb5ea	0.002285011706979691
242	0xbf20525410478800	-0.00012452388922584712
243	0xbf441275c9e5a3d2	-0.000612552179331089
244	0x3f5e5eb5afd1f5b8	0.0018536352429515523
245	0xbf7f96a66365545d	-0.0077120303670500075
246	0xbf70e94375587573	-0.004128707417775035
247	0xbf640daf8a5ab065	-0.0024479321026174444
248	0x3f6e5e935bf06b20	0.003707206545653277
249	0x3f69dd1be43b8107	0.0031571907764914617
250	0xbf78a00c6870650e	-0.006012009113896667
251	0x3f46dcef03ff2a6f	0.0006977240627688684
252	0xbf72acfa500654b0	-0.004559495719509574
253	0x3f85b573bad1bd40	0.010599998606464767
254	0xbf623b43290af146	-0.002225524113184249
255	0xbf8013aa671d4eac	-0.007850009223751307
